model_save.pth (torch_old, 414785 bytes, 4 tensors)

encoder_layer.weight f4 [50, 1024]
000000 cf 10 72 3a 4b ae f0 bc c1 62 b5 3b d2 d8 b0 bb
       0.0009234072 -0.029379984 0.005535454 -0.0053969407
000010 14 3c e5 bc e6 ae 76 3c aa 18 68 bb 9b b8 f0 bc
       -0.027982749 0.0150563475 -0.0035415092 -0.029384902
000020 6c a6 8a 3b fb 97 07 bd fb fe 0e bd 83 87 aa 3c
       0.004231265 -0.033103924 -0.034911137 0.02081657
000030 7d 4b b9 3c d5 43 fc bc 24 b8 b7 3c 0a 96 91 3c
       0.022619003 -0.030794064 0.022426672 0.01777174
000040 96 4f 5f bc 51 5d 08 bc f6 df ce bc c1 32 95 3c
       -0.013629815 -0.00832303 -0.025253277 0.018212678
000050 5f 27 f2 bc 0b 5c b9 3c 3b 4d 31 3c eb 6b aa 3c
       -0.02955979 0.022626897 0.010821636 0.020803412
000060 9e ab 9f 3c 60 4e 12 bd ce 2a d7 3b 11 1a 82 bc
       0.019491013 -0.035719275 0.006566382 -0.01588157
000070 1b 8b f1 bc 5f 65 0a bd 15 35 eb bc db c8 cf bc
       -0.029485276 -0.03378808 -0.028711835 -0.02536433
000080 1b 27 88 3b e7 dc 95 bb bb ae 2e ba 9b d4 80 3c
       0.0041550524 -0.0045734528 -0.000666361 0.015726378
000090 3a a1 01 bd 58 4b fd bc 86 9b 84 3c 0f ef 81 bb
       -0.0316479 -0.030919716 0.01618744 -0.0039652656
0000a0 35 06 c6 3c 10 3b 0f bc 99 8c 50 bb 84 70 66 bc
       0.024172882 -0.008742109 -0.0031822084 -0.014064912
0000b0 30 fb 24 3c 9a 7e 8d bc 16 4c 9f 3c b7 1b 85 bc
       0.010069653 -0.017272282 0.01944546 -0.016248567
0000c0 43 70 ac bc c7 07 91 bc 69 30 a1 3c c4 b1 06 3c
       -0.021049624 -0.017703904 0.019676404 0.008221094
0000d0 ba b3 5c 3c 53 9f 6e bc b4 d9 b0 bc 2b 42 6a bc
       0.0134705845 -0.014564353 -0.021588184 -0.014298002
0000e0 1d f0 d0 bb dc 76 55 bc c5 f0 a7 3c a0 ce f7 3b
       -0.00637628 -0.013028827 0.02050055 0.0075624734
0000f0 92 6f 10 bc 84 03 05 bb 74 79 a4 bc e4 c7 0b 3c
       -0.008815663 -0.0020296285 -0.020077445 0.008531544
000100 d1 90 f5 3a c8 f8 ca 3c c4 41 bf 3c d7 6c 74 3c
       0.0018735175 0.024776831 0.02334679 0.014918528
000110 b2 87 46 3a 2b 72 3c bc fd a2 5e bb 52 6b c3 bc
       0.0007573321 -0.011501829 -0.003397166 -0.023854885
000120 17 f5 78 bc 06 d7 67 3c f5 99 8d 3c fa ec 79 bc
       -0.015195153 0.014150387 0.017285326 -0.0152542535
000130 02 fc b4 bc 1d 9e 6c 3c 28 5c b3 bc 53 d8 63 3c
       -0.022092823 0.014441994 -0.02189453 0.013906556
000140 20 9c 29 bc d1 e1 e4 bc 8d 5e b9 bc cb 59 82 3a
       -0.0103521645 -0.027939709 -0.022628093 0.0009944973
000150 15 ff 06 bd 38 f6 c7 3c 3d c9 fb bc f7 f0 4c bc
       -0.03295811 0.024409398 -0.030735606 -0.012508622
000160 86 28 ec bc a6 8c a5 bc 87 02 e6 bb ce 02 7b bc
       -0.028827917 -0.020208668 -0.0070193443 -0.015320493
000170 41 5b b7 3b 4a 97 8a 3c 2a 13 63 ba 3d fb 00 bd
       0.005595595 0.016917843 -0.00086622185 -0.0314896
000180 3f 19 07 bd eb a1 d2 bc c0 1c d0 bc 32 70 02 bc
       -0.03298306 -0.025711974 -0.025404334 -0.00796132
000190 b9 29 68 3c da 73 b7 3c e0 5f f7 bc c4 4b f6 bc
       0.014170104 0.02239411 -0.030197084 -0.030065425
0001a0 df 90 06 bd 11 b6 dd bb 83 83 ef 39 b6 a6 82 bc
       -0.032853004 -0.006766089 0.00045683616 -0.015948635
0001b0 de d1 f2 bc 50 23 cd bc 4a 41 c6 bc e1 aa d3 bc
       -0.029641088 -0.025041252 -0.024201054 -0.025838317
0001c0 ad a1 c0 bb a6 2d 7c bc c6 59 05 bc f4 0f 76 bc
       -0.0058786483 -0.015391743 -0.008139079 -0.015018452
0001d0 13 40 97 3c ff b6 f9 bc 21 06 9a bc f4 2c 8e 3c
       0.01846317 -0.030482767 -0.01880175 0.01735542
0001e0 b0 c3 f9 ba 3a 20 a1 3c bd d3 e3 bc 71 93 4b ba
       -0.0019055512 0.019668687 -0.027810926 -0.0007765806
0001f0 be b1 b9 bc 01 eb f8 3b dd 36 ea 39 4f 13 47 3c
       -0.022667762 0.007596374 0.00044672834 0.0121506
000200 59 ff a6 3b a6 ec d8 3b f4 db ad bc cd 60 11 bd
       0.005096358 0.0066200076 -0.021223046 -0.035492707
000210 0b 8a 81 bc ff 28 cb 3a 82 25 c8 bc de 0d 0e bd
       -0.015812894 0.0015499889 -0.024431948 -0.034681194
000220 2a d0 68 3c 01 81 41 3b 5b 30 df bc 51 5e 28 3c
       0.014209786 0.0029526355 -0.027244737 0.010276393
000230 af f0 1c bc 68 cf 32 bb bc a8 91 3c e2 df 93 bc
       -0.009578868 -0.0027284268 0.017780654 -0.018051092
000240 a9 bd fd bc b5 5e 71 bb 26 8e 41 bc d3 1c 56 3c
       -0.030974226 -0.0036830131 -0.011813676 0.013068396
000250 ac 30 4f bc 77 0e 9c bc dc 2e 60 bc cb 84 ff bc
       -0.012645882 -0.019049866 -0.013683047 -0.03119125
000260 57 d3 27 3c e3 cb 14 3b 04 a6 94 bc 8f 7b 45 3c
       0.010243258 0.0022704534 -0.018145569 0.012053384
000270 be ae 8c 3c b3 ef 97 3c cf 64 0d bc f0 5b df bc
       0.017173167 0.018546915 -0.008629992 -0.027265519
000280 bd 41 37 3c a8 8c e2 bc 4e 81 a0 bc 70 55 9f bc
       0.011185107 -0.02765496 -0.019592907 -0.01944992
000290 8c f4 9f 3c 81 31 af bc d1 5f 0d 3c 4f 29 94 3c
       0.019525789 -0.02138591 0.008628801 0.018086104
0002a0 57 13 3e bc b1 07 37 3c b5 3b 0c bd 65 dc 00 3c
       -0.011601291 0.011171267 -0.03423663 0.007865046
0002b0 00 61 e3 bc 31 19 b8 3c ab 7e 19 3b 1e d5 09 bd
       -0.027756214 0.02247295 0.0023421447 -0.03365051
0002c0 f1 f1 41 3c c1 66 cb 3c e2 14 63 3b 58 b9 b3 bc
       0.0118374685 0.02482927 0.0034649898 -0.021938965
0002d0 12 8e e0 bc fc b7 e3 bc 3b e0 83 bb 6f da 2a 3c
       -0.027411494 -0.027797692 -0.004024533 0.010428055
0002e0 30 b2 8c 3c 3e 01 03 bd 03 5b d2 bc 91 7d 9f bc
       0.01717481 -0.031983607 -0.025678163 -0.019469054
0002f0 5b ca cc 3c d1 50 2d 3c 04 28 aa bc 2a b1 0e bd
       0.024998834 0.01057835 -0.020771034 -0.034836926
000300 a7 73 16 bc 75 63 d7 bc 6d 76 5f bb 2f 03 11 bd
       -0.009182847 -0.026292542 -0.0034097687 -0.035403427
000310 d6 16 13 3c 36 5c 90 bc 45 b8 d4 bc 82 7a 98 3c
       0.0089776125 -0.017622095 -0.025966773 0.018613104
000320 19 32 79 3c 76 dd 66 3b fe 6e 34 bc 92 50 e7 3a
       0.015209698 0.0035227216 -0.011012791 0.0017647913
000330 fb d7 0f bd f9 7f 3d 3b 62 de d0 3a 39 c5 21 bc
       -0.035118084 0.002891539 0.0015935416 -0.009873682
000340 27 e3 9a 3c 7a 75 ef bc e8 60 07 bd 05 2c 86 bb
       0.018907143 -0.029230822 -0.0330514 -0.004094603
000350 3f 5a 09 bd b0 b0 cb 3c 64 3b 47 3c 88 84 be bc
       -0.03353333 0.024864525 0.012160156 -0.023256555
000360 c9 1e 1e bc 91 d8 cc bc 28 41 c5 bc 9b 53 ae bb
       -0.009650894 -0.02500561 -0.02407892 -0.005320025
000370 a0 a3 7e bc 43 9e 91 3b 2a de ff bb 69 c5 e1 bc
       -0.015541941 0.004443915 -0.0078084664 -0.027559953
000380 0a 80 4b 3b 1b 9e 5f bc ee 14 ce bb 1a 87 af 3c
       0.003105166 -0.013648535 -0.006289116 0.021426726
000390 ff ce 0b bd f2 7d aa 3c 05 79 35 3b 29 02 d7 3b
       -0.034132954 0.020812009 0.0027690541 0.006561537
0003a0 24 7f 07 bd 33 82 07 bd bf c7 12 bb d0 50 b5 3c
       -0.033080235 -0.033083152 -0.002239689 0.022133261
0003b0 9c 67 e0 bc 85 c5 11 bd 6d 7d ea bb ff 30 03 bd
       -0.027393155 -0.03558876 -0.007156065 -0.03202915
0003c0 d6 44 ce bc ac dc 3c bc 7d 49 4c bc 2c 1f ae bc
       -0.025179308 -0.011527222 -0.012468693 -0.021255098
0003d0 7c e5 9a 3c 98 7c 3e 39 e9 56 9e 3c 9e 4a 55 bc
       0.018908255 0.00018166227 0.019328551 -0.013018278
0003e0 84 c7 d8 bc 33 d6 e4 bc 69 ce 46 bc ac cd ac 3b
       -0.026462324 -0.02793417 -0.012134173 0.0052735414
0003f0 3d e6 52 bc db 09 d7 bc 1f 49 d2 bc 04 e6 b8 bc
       -0.012872276 -0.026249817 -0.025669632 -0.022570617

encoder_layer.bias f4 [50]
000000 28 28 03 bc 9e d8 17 3b fe c8 eb bc 33 b1 84 bc
       -0.008005179 0.0023169885 -0.028782364 -0.016197776
000010 f0 83 1a 3d 01 83 ed bc 0e 7d 16 3c 1d 48 ab 3b
       0.03772348 -0.028993132 0.009185089 0.0052271024
000020 77 b3 b0 3c 3b 38 a5 3c fa 45 ce 3d 7d 25 90 3d
       0.02156995 0.020168414 0.10071941 0.070384
000030 3d aa d8 3c 2b 31 2f 3c da 1f 4a 3d f2 81 a4 3c
       0.026448363 0.010692875 0.049346782 0.020081494
000040 61 e5 a5 3d 97 31 97 3c 88 36 72 bc b8 ab 6f 3d
       0.08100391 0.018456263 -0.014783509 0.058513373
000050 27 88 92 3d 4e d9 c2 bc c7 88 2c 3b e2 9d 00 3c
       0.07154875 -0.02378526 0.0026326643 0.007850142
000060 93 01 bf bc 94 94 02 bd 02 58 82 3d 7b 8f 9d 3c
       -0.02331618 -0.031879976 0.063644424 0.019233456
000070 2c f7 cf bc 69 9a 08 bd 54 2c fc 3c 1b 7e 09 bd
       -0.025386415 -0.033350382 0.030782856 -0.03356753
000080 24 c9 3a bc 4c da 9d bc 21 1e b1 3d fa dd 04 3d
       -0.011400495 -0.019269131 0.08648325 0.032438256
000090 a0 98 57 bc a5 30 08 bd 44 7a 21 3d a1 93 14 bd
       -0.013158947 -0.033249516 0.039423242 -0.036273602
0000a0 a0 65 d3 3b 73 f1 73 3c 9f 47 bf bb 86 b3 2b 3c
       0.0064513236 0.014889109 -0.0058373953 0.010479813
0000b0 ad 85 07 3a bc 62 bd bc 20 90 94 3c d7 48 13 3d
       0.00051697606 -0.02311837 0.01813513 0.035958137
0000c0 cb 64 82 3c 1e 39 9e bc
       0.015917202 -0.019314345

decoder_layer.weight f4 [1024, 50]
000000 1e 77 c0 3d c3 0c e5 bd 78 26 fe 3d 86 11 3b bd
       0.0939772 -0.11184075 0.12409681 -0.04567101
000010 3e 62 4c 3e d0 30 95 3c bf 01 2b 3e e1 ac 27 3e
       0.19959351 0.018211752 0.16699885 0.16374542
000020 f3 e1 86 3d bc 80 6e bd 86 44 c1 bd c9 ca 89 3d
       0.06586065 -0.05822824 -0.09436898 0.06728131
000030 ec 5e b0 bd 1e f4 ba bd 74 b9 45 3d eb b6 2c bd
       -0.08611855 -0.09128593 0.048272565 -0.04216663
000040 c4 14 33 bc 19 3c 82 bc d7 f8 3d bd ec e7 44 3a
       -0.010930244 -0.015897797 -0.04637989 0.00075113657
000050 93 52 d1 bc b0 e1 cf bd cf 6e 65 bc 97 27 dc bd
       -0.02555207 -0.10150468 -0.01400347 -0.10749739
000060 f9 97 d8 3c 7d 18 83 3d 91 99 3c 3e 3f 30 10 bd
       0.026439654 0.06401155 0.18417956 -0.03520226
000070 ba 46 87 3d de 57 9d bd ba 31 19 bc 89 c7 7c 3d
       0.06605287 -0.07682775 -0.009350235 0.06171373
000080 e3 9b 0c 3c c3 78 d1 bc 63 2e e5 3d 1d 60 b9 3d
       0.008582088 -0.025570279 0.11190488 0.09051535
000090 da 75 86 bd 75 62 89 3d b9 58 85 bd 5f 33 b4 3c
       -0.06565447 0.06708232 -0.06511063 0.021997152
0000a0 89 1c 67 3c 8f 5a 1d 3d 07 ed 81 3d 0f 78 b7 3d
       0.014105924 0.03841644 0.063440375 0.08958446
0000b0 a1 0a 03 3e 14 e1 2c bd 44 5b 72 3d 5f be 9a bd
       0.12797023 -0.04220684 0.05916907 -0.07555842
0000c0 c0 54 7a 3d c5 5c e6 ba 01 91 de bd 46 a5 d1 bd
       0.06111598 -0.0017575255 -0.10867501 -0.102366015
0000d0 55 68 31 bd 39 57 a4 bd f6 37 52 3e 58 38 fe 3d
       -0.04331239 -0.08024449 0.2052916 0.124130905
0000e0 63 1e 2e 3e e7 6b 1d 3e ec ed 96 3d 8a 3f 77 bb
       0.17003779 0.15373193 0.07369599 -0.0037727081
0000f0 63 d8 c0 bd f6 e5 74 3d a1 93 b0 bd 79 90 c4 bd
       -0.094162725 0.05978962 -0.08621908 -0.095978685
000100 82 6f 72 3d 7d 10 37 bd 64 23 13 bb 38 a9 0e bc
       0.059188373 -0.04469346 -0.0022451514 -0.008707337
000110 62 7f 48 3c 0a 7f 63 3a 01 b1 c0 bc 14 02 c6 bd
       0.012237402 0.0008678293 -0.023521902 -0.09668365
000120 25 14 b0 bb fb ab db bd cd 2a aa bc 0e 02 0f 3d
       -0.005373495 -0.10726162 -0.020772362 0.03491407
000130 1c 2c 37 3e 35 35 2e bd b0 9d 4e 3d 5d a5 b0 bd
       0.1788792 -0.04253121 0.05044335 -0.086252905
000140 b0 e6 b9 bb 7b 1c c0 3a a2 91 06 be 92 ae ec bc
       -0.005673252 0.0014656925 -0.13141492 -0.028891835
000150 6a 88 dd 3d ef a8 ba 3d 41 56 53 bd 1c 5d 8a 3d
       0.108170345 0.09114253 -0.05159593 0.067560405
000160 a4 fb 93 bd a3 fa dd 3c 8d b2 6b 3c 33 e2 00 3d
       -0.07225731 0.027097052 0.014385832 0.03146572
000170 fd 26 e5 bc 37 49 81 3c b3 01 06 bd 2c fa 34 bd
       -0.027972693 0.015781982 -0.032716464 -0.044183895
000180 0a 0e 5d 3d ad 06 9b bd f9 1d 03 3e da fc 18 3d
       0.053968467 -0.07569633 0.12804402 0.037350513
000190 5a bb e1 3d c6 ce c4 bd df 46 89 bd df 8b 58 3c
       0.110220626 -0.096097514 -0.06702971 0.013216942
0001a0 02 5c 58 3e 3d 10 0b be ac 1c 25 3e 34 27 15 3e
       0.21128848 -0.13580413 0.16124219 0.14565736
0001b0 de 8a a1 3d 76 4a 82 3d e7 e6 ce bd 1a f0 54 3d
       0.07887815 0.063618585 -0.10102635 0.05198679
0001c0 22 d4 c0 bd 08 43 49 bc ba 30 88 3d dd 61 47 bd
       -0.09415461 -0.012284048 0.06649919 -0.048677314
0001d0 c9 eb 8a 3b 71 d2 81 bb 2e 36 6a 3d 7d 6b d9 3a
       0.0042395336 -0.003961854 0.057180576 0.001658782
0001e0 11 72 bc bc 5b 08 7f bd 6f b5 a6 b8 ec 1e d7 bd
       -0.02300361 -0.062263828 -7.9492915e-05 -0.10503945
0001f0 d1 13 51 bd 26 31 5d 3d 5c b5 30 3e 0e 1b 3a bd
       -0.05104429 0.05400195 0.17256683 -0.045435958
000200 7d a7 10 3d a0 11 bc bd 17 da 11 bb 61 b8 f0 bd
       0.03531598 -0.09183049 -0.0022255236 -0.117539175
000210 c0 e0 0d 3c 16 8f f1 3d 4c bc da 3d da 48 c1 3d
       0.008659542 0.117948696 0.10680446 0.094377235
000220 71 d7 ef bc c7 ea 82 3d e5 03 8e bd 70 ab 3c bc
       -0.029277535 0.063924365 -0.069343366 -0.011515483
000230 b6 79 8c 3c 89 23 de 3c b1 d2 3b 3c 9e 2b ce bd
       0.01714788 0.027116554 0.011463807 -0.10066913
000240 06 5f bf bd 3a c1 92 bd b6 43 4c 3d e2 68 8e bd
       -0.09344296 -0.07165761 0.04986926 -0.069535986
000250 a0 00 00 3e 7c c7 af 3d e8 66 d6 bc 9c b3 ba bd
       0.12500238 0.085829705 -0.026172116 -0.09116289
000260 77 4d dd bd 23 8d 05 bd 2c 7f 5a 3e 13 47 85 3d
       -0.10805791 -0.0326053 0.21337575 0.06507697
000270 d2 1d 14 3e 41 59 08 3e f6 35 a5 3d e1 4d 96 bd
       0.144645 0.13315298 0.08066933 -0.07339073
000280 25 8b e1 bd 6a 1c 3f 3d 1f 40 dd bd ee c1 33 bd
       -0.11012868 0.046657957 -0.10803246 -0.043886118
000290 fe e3 93 3d 12 15 57 bd a0 67 46 3c 16 26 1d 3b
       0.072212204 -0.05251033 0.012109667 0.0023979
0002a0 e8 a0 a0 3d 3f 6a a1 3b 92 c5 e4 bc f9 1f 5b bc
       0.078431904 0.0049259956 -0.02792624 -0.013374322
0002b0 0d 24 8a 3b 0a f1 d1 bd d6 6d a7 bd 51 4a 31 3d
       0.0042157234 -0.10251053 -0.081752464 0.043283764
0002c0 6d a1 28 3e 17 9a 2e bd 45 58 b4 3c 40 40 be bd
       0.16467829 -0.04262742 0.022014746 -0.092895985
0002d0 5a 47 1f 3b 65 7d 24 bd 8d 54 0d bc f7 01 f6 3d
       0.0024304003 -0.040158648 -0.0086261155 0.120120935
0002e0 9a 73 d9 3d da 0f c6 3d 7d 6e 3b bb 23 4b 69 3d
       0.106177524 0.09670992 -0.0028599792 0.05695642
0002f0 5a b0 7a bd 53 a2 7e 3d ed 5e a7 3c 4a 33 ce 3c
       -0.06120334 0.062166523 0.020431006 0.02517094
000300 7f 86 97 3d d9 a0 40 bd 5e 8f 83 bd e7 cc ed 3d
       0.073987 -0.047028396 -0.064238295 0.11611348
000310 ed c2 2c 3d 34 bb 74 bd 24 f1 3d bd 46 21 fe bd
       0.042178083 -0.059748843 -0.046372548 -0.1240869
000320 5d d6 ee bb 22 8c b4 bd 2a f5 ae bd 21 c3 e8 3d
       -0.0072887377 -0.08815791 -0.08542855 0.11365343
000330 ae b4 5a 3e 3c 90 eb 3d db c0 fe 3d 61 11 01 3e
       0.21357986 0.1150212 0.12439128 0.12604286
000340 27 15 9c 3d 43 95 39 3c 60 40 f4 bd 2e ec 1e 3d
       0.07621222 0.011327091 -0.11926341 0.038799457
000350 4e 1f f7 bd e3 ca c7 bc a8 80 96 3d 74 26 56 bd
       -0.12066518 -0.024388736 0.07348758 -0.052282766
000360 1f 77 96 3c 79 92 0f 3c 41 f4 91 bd 4f cd f4 3b
       0.018367348 0.008762949 -0.07126666 0.0074707638
000370 f7 f1 f9 bc 7d d6 0a 3e 9e e8 d1 3b a1 45 cb bd
       -0.030510886 0.13558383 0.006405904 -0.0992539
000380 78 48 98 3d 2e 91 d1 bd 35 14 1f 3e 94 15 2b bd
       0.07435697 -0.10232769 0.15535052 -0.041768625
000390 46 33 22 3c 2d e3 be bd e2 1b b8 3b 3e 2e f0 3d
       0.00989992 -0.09320674 0.0056185583 0.1172757
0003a0 98 a2 46 bd f7 8a c7 3d 17 1b d8 3d 03 57 cc 3d
       -0.048494905 0.09743302 0.10552042 0.09977534
0003b0 97 61 cf 3c 40 ef 3b 3d 19 a4 44 bd 90 ea 3b 3d
       0.02531509 0.045882463 -0.04800806 0.045877993
0003c0 fc bc d9 3c ff 72 b7 3c 72 f5 1c 3d 5c 64 a9 bd
       0.026579373 0.022393702 0.038320012 -0.08271095
0003d0 f6 01 9c 3d 95 10 4d 3d 39 e9 16 3d 92 6e 3e bd
       0.076175615 0.050064642 0.036843512 -0.046492167
0003e0 d8 97 9e 3d 9a 68 97 bc ac 7b a4 3d 70 49 cb bd
       0.07743806 -0.018482495 0.08031401 -0.099261165
0003f0 2f 1f 06 be 5e 9c ae 3d 29 57 02 be e8 6d d8 3d
       -0.13097833 0.085259184 -0.12728561 0.10567838

decoder_layer.bias f4 [1024]
000000 0b 72 a5 bc 0d 15 b2 bc 7f 49 ae bc f2 90 a4 bc
       -0.020195981 -0.021738553 -0.02127528 -0.020088647
000010 20 6c 8c bc 6a 6e a5 bd 1e cd 71 bc 26 f7 72 bc
       -0.017141402 -0.080777004 -0.014758376 -0.014829433
000020 08 2d e4 bc 58 b9 55 bc 7b 6c 4b bc cc 76 28 bc
       -0.027853504 -0.013044678 -0.0124160005 -0.01028223
000030 2a 7e 27 bc f7 c9 2c bc 4e a4 25 bc f5 6a 1f bc
       -0.010222951 -0.010546199 -0.010109974 -0.00973009
000040 53 e2 37 bc de 46 35 bc 96 89 34 bc 9a 3b 2f bc
       -0.0112233935 -0.011064259 -0.011019131 -0.010695362
000050 f9 1e 2b bc b6 36 03 bc 28 52 cf bb e1 ed b0 bb
       -0.010444396 -0.00800865 -0.0063269325 -0.005399451
000060 25 15 8a bb ee 37 52 bb ab e3 36 bb 0b 41 54 bb
       -0.0042139464 -0.0032076794 -0.0027906697 -0.0032387401
000070 31 70 56 bb e1 96 3b bb 65 23 5e bb ff 6e 26 bb
       -0.003272068 -0.0028623866 -0.0033895609 -0.0025395749
000080 be 02 fc bc ea a8 06 bd 61 b2 ff bc 39 79 02 bd
       -0.030763026 -0.032875933 -0.031212987 -0.03185389
000090 7e 69 e6 bc 32 10 dd bc 2f 1b df bc 7f 8e e5 bc
       -0.028126474 -0.026985262 -0.027234642 -0.028022049
0000a0 52 b2 e1 bc bd f4 da bc 55 7a d7 bc 6f 04 cb bc
       -0.02755085 -0.026728028 -0.02630345 -0.024782388
0000b0 aa ee cd bc 9f 7d d6 bc b7 2b ce bc dd 06 cd bc
       -0.025138218 -0.026182948 -0.02516733 -0.025027687
0000c0 09 32 dc bc 55 45 de bc 6e 4b e0 bc 14 e9 da bc
       -0.026879327 -0.02713267 -0.027379718 -0.026722468
0000d0 c9 15 ce bc 22 f4 aa bc 39 a8 99 bc 4d 03 91 bc
       -0.025156872 -0.020868365 -0.018756973 -0.01770177
0000e0 d0 68 d0 bd 46 e7 66 bc a6 16 51 bc 57 f5 5d bc
       -0.101762414 -0.014093226 -0.012761747 -0.013547263
0000f0 d0 1f 5c bc 76 85 3c bc c6 3d 3e bc b1 40 40 bc
       -0.013435319 -0.011506429 -0.011611408 -0.011734174
000100 4c 60 18 bd 48 6a 25 bd 10 34 1c bd b8 4d 1e bd
       -0.03720121 -0.04038456 -0.03813559 -0.038648337
000110 e2 38 14 bd 91 8a 12 bd 9b e8 12 bd 8e b4 12 bd
       -0.03618706 -0.03577668 -0.03586636 -0.03581672
000120 1d ff 0f bd 2f b9 11 bd 38 c9 0e bd a8 29 0e bd
       -0.035155404 -0.035576995 -0.034859866 -0.034707695
000130 a0 9d 13 bd d9 05 15 bd 89 56 14 bd 57 75 18 bd
       -0.036038995 -0.03638253 -0.03621534 -0.03722128
000140 31 c5 1a bd a8 bd 1b bd 74 2c 1d bd 64 0d 1a bd
       -0.037785713 -0.038022667 -0.038372472 -0.037610427
000150 bf ea 12 bd d0 e3 fd bc d4 bd e1 bc f8 4e b7 bd
       -0.035868403 -0.030992419 -0.027556337 -0.08950609
000160 1e 6a c5 bc 70 af a9 bc 83 7c 97 bc c7 ea 94 bc
       -0.024098452 -0.020713538 -0.018491989 -0.018178357
000170 6f ef 89 bc b0 39 8e bc 24 ed 91 bc 30 2a 8e bc
       -0.016837804 -0.017361492 -0.017813273 -0.017354101
000180 17 bb 29 bd 7c 86 37 bd 66 0d 2f bd e8 13 31 bd
       -0.04143819 -0.04480599 -0.042737387 -0.043231875
000190 46 35 30 bd 9c 9a 2b bd 53 cf 25 bd ab e8 24 bd
       -0.043019556 -0.041895494 -0.040480923 -0.040260952
0001a0 9f 65 23 bd d0 2d 23 bd 01 37 04 be 0a 48 23 bd
       -0.039891835 -0.039838612 -0.12911607 -0.039863624
0001b0 c2 68 31 bd c5 de 33 bd f3 86 34 bd 97 88 3c bd
       -0.043312795 -0.04391362 -0.04407401 -0.0460287
0001c0 13 ce 42 bd c5 77 44 bd 3a fb 45 bd 49 ad 40 bd
       -0.04755981 -0.047965784 -0.04833529 -0.047040258
0001d0 ef b8 3b bd 42 88 2a bd e2 5b 13 bd d2 4f 07 bd
       -0.045830663 -0.04163385 -0.0359763 -0.033035107
0001e0 52 1c f8 bc ad b7 d7 bc 67 80 bf bc 5d 71 ad bc
       -0.030286942 -0.0263327 -0.023376657 -0.02117222
0001f0 e4 e5 98 bc 3b dd a4 bc 2e 6e b5 bc 91 91 aa bc
       -0.018664308 -0.020125022 -0.022147264 -0.020821365
000200 8a 25 31 bd c9 6a 39 bd c8 66 35 bd 9d 53 35 bd
       -0.04324869 -0.045267854 -0.044287473 -0.044269193
000210 95 e2 34 bd e7 91 2a bd f0 76 22 bd f4 e0 23 bd
       -0.044161398 -0.04164305 -0.03966421 -0.040009454
000220 f6 df 25 bd 40 00 23 bd 0d 22 17 bd c0 7c 1b bd
       -0.04049679 -0.03979516 -0.036897708 -0.037960768
000230 0e 13 2a bd 51 ca 34 bd 3d 6f 39 bd e3 f4 46 bd
       -0.04152208 -0.044138256 -0.0452721 -0.048573386
000240 ba da 51 bd e5 ab 50 bd 82 57 4c bd 43 54 4f bd
       -0.051233985 -0.05094518 -0.04988814 -0.050617468
000250 5e 25 50 bd 6e 8b 42 bd 41 9e 2f bd 0e 3b 1f bd
       -0.050816886 -0.04749625 -0.042875532 -0.03887468
000260 d9 37 0e bd 81 7a 01 bd b2 50 dc bc c7 ce b7 bc
       -0.03472123 -0.03161097 -0.026893947 -0.022437466
000270 f6 45 a9 bc 50 35 bc bc 64 cd ca bc 90 80 c0 bc
       -0.020663243 -0.02297464 -0.024756141 -0.023498803
000280 7e af 31 bd d5 75 37 bd 73 8b 30 bd 28 21 2c bd
       -0.043380253 -0.044790108 -0.04310174 -0.042023808
000290 77 ff 26 bd e2 ed 1d bd 56 33 14 bd e8 0f 12 bd
       -0.040770974 -0.03855694 -0.03618177 -0.0356597
0002a0 24 41 11 bd f9 52 0e bd 1f f7 07 bd a0 04 08 bd
       -0.035462514 -0.034747098 -0.033194657 -0.033207536
0002b0 f6 99 11 bd b8 36 d2 bd 21 31 1d bd 02 67 30 bd
       -0.03554722 -0.10264343 -0.03837693 -0.043066986
0002c0 21 be 41 bd c2 94 47 bd b0 b9 48 bd c4 d2 4f bd
       -0.04730046 -0.04872585 -0.04900521 -0.05073811
0002d0 25 26 56 bd 6f 6b 46 bd d1 16 32 bd 49 d1 23 bd
       -0.05228247 -0.0484423 -0.04347879 -0.03999451
0002e0 5f 54 0c bd 2b 7b ea bc d4 98 c2 bc ad d8 ab bc
       -0.03426015 -0.028623184 -0.023754515 -0.020977343
0002f0 f0 5a 9d bc e3 e0 b0 bc 6c 1a c6 bc 56 92 bb bc
       -0.019208401 -0.02159161 -0.02418252 -0.022896927
000300 97 c9 2d bd e5 81 36 bd 52 55 26 bd 07 2f 1c bd
       -0.04242858 -0.04455747 -0.04060871 -0.038130786
000310 a9 94 10 bd dd b5 02 bd f3 04 eb bc 36 c1 d9 bc
       -0.035298023 -0.03191172 -0.028688883 -0.026581388
000320 a3 65 ce bc 7c 68 c0 bc 72 1a bd bc a8 0a bd bc
       -0.025194949 -0.023487322 -0.0230839 -0.02307637
000330 79 ec c6 bc 6c 30 d8 bc 02 81 ea bc a7 16 05 bd
       -0.02428268 -0.026390277 -0.028625969 -0.032492306
000340 62 85 18 bd 20 cd ec bd ea d0 27 bd 2b 9f 30 bd
       -0.03723658 -0.11562562 -0.04097072 -0.043120544
000350 fb 65 3a bd 3f 95 2d bd ee f2 17 bd df c8 07 bd
       -0.045507412 -0.04237866 -0.03709691 -0.03315055
000360 ff 32 00 bd 0d bd c8 bc a4 59 9e bc 5f cb 97 bc
       -0.031298634 -0.024504209 -0.019329853 -0.018529592
000370 bc 2f 89 bc bc 4a 97 bc a4 8c ab bc 65 15 9f bc
       -0.016746394 -0.018468253 -0.020941086 -0.019419381
000380 1e cb 25 bd 5c 26 29 bd 4a f2 11 bd eb cf f7 bc
       -0.04047691 -0.041296348 -0.035631455 -0.03025051
000390 5a a6 d7 bc 92 30 af bc d8 17 9a bc 3c 64 93 bc
       -0.02632444 -0.021385465 -0.018810198 -0.017992131
0003a0 14 88 62 bc 3c d2 38 bc 2a e0 4d bc 0f b5 4e bc
       -0.013826389 -0.0112805925 -0.012565652 -0.01261641
0003b0 51 be 5d bc 28 d6 7f bc 71 ad 92 bc fd bb b2 bc
       -0.0135341445 -0.015615024 -0.017904969 -0.021818155
0003c0 10 72 c9 bc e8 0f e9 bc cc c0 e5 bc fa aa f8 bc
       -0.024590522 -0.028449968 -0.028046034 -0.030354965
0003d0 7c 36 09 bd ea e6 f8 bc 5b 3d d3 bd 7f bd ca bc
       -0.033499226 -0.030383546 -0.10314437 -0.024748562
0003e0 ec 91 d1 bc be 12 b4 bc b0 3c 86 bc 9e 3f 6b bc
       -0.025582276 -0.021981593 -0.01638636 -0.014358429
0003f0 64 82 69 bc d8 bb 48 3c cc 4c 9c bc a3 c6 9b bc
       -0.014252279 0.012251817 -0.019079588 -0.019015616
